pretrained/minionn.pt (torch, 665039 bytes, 16 tensors)

0.weight f4 [64, 3, 3, 3]
000000 ba 3a ae be ab 9e 3b be a4 81 4d 3e 9d db 52 bd
       -0.3402918 -0.18322246 0.20068985 -0.05147897
000010 39 ba 38 3e 30 df be 3e 27 9e c8 3e c7 53 d2 3e
       0.18039788 0.37279654 0.3918316 0.41079542
000020 44 ce 66 bd d3 31 71 be 86 31 f5 bd f2 37 0b 3e
       -0.056349054 -0.23554163 -0.119723365 0.1359556
000030 4b b9 01 be 69 96 23 be cb 5e 99 3d 7e eb 27 bd
       -0.1266834 -0.15975346 0.074887834 -0.040996067
000040 fb 05 1b bd c4 56 72 bd 13 05 b6 be 42 f4 57 be
       -0.0378475 -0.059164777 -0.35550746 -0.2108927
000050 d7 e8 ba 3e 04 39 14 be b4 81 82 3d bd a0 7d 3e
       0.36505768 -0.14474875 0.06372395 0.24768348
000060 55 09 27 3d 57 80 71 3e fe 01 b7 3c c8 0d 88 be
       0.040780384 0.23584114 0.022339817 -0.26573014
000070 9e 76 9b be 6d 79 10 be 01 27 8d 3d d6 17 43 3e
       -0.30363935 -0.1410882 0.06892205 0.19052061
000080 a0 7f 64 be 5f 76 81 be d6 a8 12 be 9e c1 56 3d
       -0.2231431 -0.25285622 -0.14322218 0.05243074
000090 67 6f ab 3d 1c ba cf 3d 78 48 b1 be ad cd 59 3e
       0.08370858 0.101429194 -0.34625602 0.21269865
0000a0 f2 d2 3f 3e 40 49 b1 bd c2 5c c1 bd 24 6b 76 be
       0.18732813 -0.086565495 -0.0944152 -0.24064308
0000b0 4d c6 37 be 4f 01 58 3e 3e 34 aa 3e 14 7a 3e 3b
       -0.1794674 0.21094249 0.33242983 0.0029064463
0000c0 76 d6 c0 3e 3a b6 ed 3e 1a 86 8b 3c 55 b6 2f 3d
       0.3766362 0.4642809 0.017031718 0.042898495
0000d0 4f 00 ed bd 95 e8 7e be 4f da 39 3e 42 ba 6d bc
       -0.115723245 -0.2489341 0.18149684 -0.014509739
0000e0 6f 44 79 be c4 be d0 3c 75 c6 b4 be 9f fc ec 3d
       -0.24342512 0.02548159 -0.3530766 0.11571621
0000f0 f9 fa 0d be a1 74 8f be 37 70 08 3d 4f 82 18 3e
       -0.1386527 -0.28018668 0.03331014 0.14893459
000100 5d 80 8b 3e 4e d4 06 be 52 9f 57 3e b5 07 50 be
       0.2724637 -0.13166925 0.2105687 -0.2031544
000110 85 a2 0f 3e 41 7d 59 3b 09 c5 88 be 95 c8 3f 3e
       0.1402684 0.003318623 -0.26712826 0.1872886
000120 ea 48 81 3e c9 a0 99 3e 34 76 0a 3e f4 24 43 3e
       0.25250942 0.30005482 0.13521653 0.19057065
000130 04 5b 92 be 21 61 0d be 44 3d 93 be 33 a5 38 be
       -0.28585064 -0.13806583 -0.2875768 -0.18031769
000140 5b 03 db bd 20 1b a2 be 6c 10 d8 3c 44 cc 06 be
       -0.106939994 -0.3166132 0.026375018 -0.13163859
000150 20 af 91 3e 8c 1f d4 3e 37 cb 39 be d1 ae 55 3e
       0.28453922 0.41430318 -0.18143927 0.20867468
000160 34 a7 86 3e 0e 4d 4d bd 9f 7d 16 bd aa e5 89 3e
       0.2629944 -0.050122313 -0.036740895 0.26933032
000170 f7 36 32 3e e6 0d 12 3c c4 a6 58 3e cb c5 09 be
       0.1740378 0.008914446 0.21157366 -0.13454358
000180 eb 08 89 3d b1 ad 48 bd 77 40 5c be ee 0f 85 be
       0.06691154 -0.04899377 -0.21508966 -0.25988716
000190 9e b7 8e bc 95 ab 7e 3e 7b ef 54 be ab 1f 9e bc
       -0.01742154 0.24870141 -0.2079448 -0.01930221
0001a0 68 a7 8e bc 86 08 14 3e 39 66 84 be 78 a8 33 be
       -0.01741381 0.14456376 -0.2585924 -0.17544734
0001b0 a2 f0 66 be fe 6f 49 3e bf 14 b2 3e 6c 7d 87 be
       -0.22552732 0.19671628 0.34781453 -0.26462877
0001c0 ca 8d 5f be 76 58 ab 3e 2c c2 f4 bd eb 1d 3e be
       -0.21831432 0.33465928 -0.11951098 -0.185661
0001d0 17 e7 a0 bd fc e9 91 be 24 95 b6 3d 94 46 94 3e
       -0.07856577 -0.28498828 0.08915165 0.28960097
0001e0 b7 26 af be 16 eb 83 be 00 8a 69 3e 16 5e 54 be
       -0.34209225 -0.25765294 0.22806549 -0.20739016
0001f0 3b d3 9b bd 2c 96 a0 be 0c 97 bf bc 1d d0 56 3e
       -0.076086484 -0.31364572 -0.023387454 0.20977826
000200 5e 86 19 3e 6a 14 df bd 8c 7b 60 3e 1d fe 18 3e
       0.14992663 -0.108925655 0.2192213 0.14940687
000210 e3 e6 5a 3e a0 6f 2e 3e 0b c6 aa bd 2b a3 70 3e
       0.21377139 0.17034769 -0.08338555 0.23499744
000220 03 fd 18 be e9 b8 2c be b3 0d 47 3e a1 e5 19 be
       -0.14940266 -0.16867413 0.1943882 -0.15029003
000230 f0 cd 49 be 43 5f 6b be db e5 7c 3e 21 6a 81 bd
       -0.19707465 -0.22985558 0.24697058 -0.063190706
000240 a4 29 60 3e 35 6e 16 be 89 64 b0 bd 17 5a 1a 3e
       0.21890885 -0.14690478 -0.086129256 0.15073429
000250 d3 4e fd bd 11 48 15 bc eb cd 24 be ce c2 9d 3e
       -0.1236855 -0.00911142 -0.16094176 0.30812687
000260 b2 90 68 3e aa 81 46 3e 85 16 64 be b0 5d 5f bd
       0.22711447 0.193854 -0.22274216 -0.054532707
000270 81 1c 81 3e 36 c2 9b bd 79 b5 5b be 0e 9d 98 be
       0.2521706 -0.07605402 -0.21455945 -0.29807323
000280 35 71 99 3e 4a 2c 5a 3e b0 29 3b bd 96 5f 02 3e
       0.29969183 0.21305957 -0.045694053 0.12731776
000290 b4 ee 11 be c5 28 e4 bd ee f2 ca 3b 25 37 3c be
       -0.14251214 -0.11140589 0.0061935103 -0.18380411
0002a0 49 10 a1 bc 6a c9 a2 3d 39 2b e2 bd 5c c0 60 3e
       -0.019661086 0.07948573 -0.110434 0.2194838
0002b0 6c 27 7e 3e 62 1f 8d be b8 f9 2a 3e 83 b2 a4 bc
       0.24819726 -0.27563006 0.16696823 -0.020104652
0002c0 7d ff f0 3c ff 2f 9b 3c 96 27 9c bd ce 81 e7 bd
       0.029418701 0.018943785 -0.07624738 -0.11304055
0002d0 b6 78 4a 3d 6d 8e 0c 3d 02 87 0d 3e 09 a7 dd bc
       0.049431525 0.034315515 0.13821033 -0.027057188
0002e0 17 f0 4c 3d b2 25 a2 3d 58 f6 97 bd b1 61 1a 3e
       0.050033655 0.07917346 -0.07420033 0.15076329
0002f0 44 38 39 be a0 22 18 be 7a 8d ad 3e 31 56 1e 3d
       -0.1808787 -0.14856958 0.33897 0.038656417
000300 fd 6e 54 be 60 f9 99 3e 5a 6f f9 3d c5 de 7f 3d
       -0.20745464 0.3007307 0.12179442 0.06246831
000310 61 09 8f be 85 ca b0 3e 18 59 84 bd 7b 5e 5a 3d
       -0.27936843 0.3452951 -0.06462306 0.05331276
000320 05 ae 88 be c5 59 27 be c7 82 14 be c8 de 27 be
       -0.26695266 -0.16342838 -0.14503013 -0.16393578
000330 93 24 d8 3d e5 50 a4 be c6 35 2c 3e 4a b8 b2 3e
       0.10553851 -0.32092968 0.16817388 0.34906226
000340 7c 4a 98 3e 70 dd 5b be 1f ad 4c bd 87 db 3e be
       0.29744327 -0.2147119 -0.04996979 -0.1863843
000350 48 54 15 be 39 2f e6 3e f1 de 95 be 2d bb 44 be
       -0.14582932 0.44957903 -0.29271653 -0.19212027
000360 a3 1a a2 be 20 76 04 be 68 33 76 3e 45 7f 9e 3d
       -0.31660947 -0.12935686 0.24043047 0.077391185
000370 79 12 af 3d 59 68 86 bd ed 89 7e 3e 3c d7 6d bd
       0.08548445 -0.065628715 0.24857302 -0.05806659
000380 30 f9 c9 be e5 c4 c4 bd 52 54 0a be e6 61 34 3e
       -0.39447927 -0.09607867 -0.13508728 0.1761547
000390 ca e3 b2 bc 77 34 95 3e 3b b1 cb bd 9c 0a 97 3e
       -0.021837134 0.2914159 -0.099459134 0.29500282
0003a0 ef a4 97 3e a9 99 a6 be de a7 ae be 6f d1 6e be
       0.29618022 -0.32539108 -0.34112448 -0.2332208
0003b0 2a dd fe 3d 60 65 79 3d b9 ee ae bd 30 4f f4 bd
       0.124445274 0.060887694 -0.085416265 -0.11929166
0003c0 86 98 cf bc a0 00 26 3e 9c 84 5d be e9 91 47 be
       -0.025341284 0.16211176 -0.21632618 -0.19489254
0003d0 0b 4b c4 be fd 76 99 be 9f 7b 39 3e 80 ed 0e be
       -0.38338503 -0.29973593 0.18113564 -0.13957787
0003e0 d2 e7 57 3e 58 3b 1f 3e c5 b8 13 3e f1 58 77 3e
       0.21084526 0.15549982 0.14425953 0.24155022
0003f0 48 8f 79 bc 10 eb 7b be f6 93 05 be b3 bf 2f 3e
       -0.015231915 -0.24601388 -0.13044724 0.17162971

0.bias f4 [64]
000000 a3 fb b2 be e4 e8 a7 be 3d 2f 8a be 8b 94 17 3e
       -0.3495761 -0.3279487 -0.26989165 0.14802758
000010 7b 84 b7 be e5 b2 5d 3e f6 a6 01 bf 73 8a 12 3d
       -0.35843262 0.21650274 -0.5064539 0.035776567
000020 2b ea ee be 22 11 03 bd 97 7f 8b be 4e 19 25 bf
       -0.4666303 -0.03199876 -0.2724578 -0.64491737
000030 98 8d eb be a3 1e 00 bf fa ab fe be d3 01 de 3c
       -0.46006465 -0.5004675 -0.49740583 0.02710048
000040 7e b9 77 bd d6 84 23 bf 49 d6 8f bd 41 ea 67 3e
       -0.060479634 -0.63874567 -0.070232935 0.22647955
000050 8a bf f1 be 65 6d b6 be fc bc 7f 3e 3f 5b a6 be
       -0.47216445 -0.35630336 0.24974436 -0.3249149
000060 f9 8f d4 3e 86 13 e7 3a 82 91 e0 bd de ee bf be
       0.41516092 0.001762972 -0.109652534 -0.3748693
000070 8b da 17 bf 2c 64 91 be 4b ae 66 3c 5b 24 4c ba
       -0.59317845 -0.28396738 0.014079641 -0.00077874
000080 4f 31 07 be 25 a3 3d bd dc 92 06 bf dd 94 4b be
       -0.13202403 -0.046298165 -0.5256784 -0.19881006
000090 15 7e 11 be e7 db 0e be 47 ae 1f be 4c 81 e0 be
       -0.14208253 -0.13951074 -0.15593825 -0.43848646
0000a0 16 6c b6 be 81 ef 52 bd 09 55 0c be e1 01 d2 be
       -0.35629338 -0.05149794 -0.13704313 -0.41017058
0000b0 40 ec 04 bd 36 9c 01 bf 3a 39 4e bd de 19 04 3d
       -0.032451868 -0.50628984 -0.050347544 0.03225123
0000c0 ec 65 aa be e2 c5 88 3e 64 d4 a1 be b2 2c be 3d
       -0.33280885 0.26713473 -0.31607354 0.09285869
0000d0 5a 60 9a 3e f0 2d a0 be 54 fc 58 be 5c e3 ce 3e
       0.30151635 -0.31285048 -0.21190006 0.40407836
0000e0 4d 70 f6 3d 0e eb 81 be 92 b5 87 3e 9f 71 6f be
       0.120331384 -0.25374645 0.26505715 -0.23383187
0000f0 f1 1b 30 be 8f 4f e4 3d 16 e9 27 3e c5 ce cc bd
       -0.17198159 0.11147987 0.16397509 -0.10000376

2.weight f4 [64, 64, 3, 3]
000000 ed ab 11 3e b4 4f 2f bf 33 1a a2 be 59 d1 cd bd
       0.1422574 -0.6848099 -0.31660613 -0.100496955
000010 22 ee 6e be 03 30 5d 3e 15 53 4e be cc 50 0e 3e
       -0.23333028 0.21600346 -0.20148881 0.13898009
000020 09 6e 8f 3d 63 a3 89 3e cf d1 9a 3e c3 69 c5 bc
       0.070034094 0.26882467 0.30238196 -0.024098283
000030 e3 f1 72 3e 4e 0f c2 3d d5 a3 c7 be 2a 74 72 be
       0.23725085 0.094755754 -0.3899218 -0.23677126
000040 b1 5a 1d bf 46 c2 c1 be 88 39 ad 3d 62 67 ff 3d
       -0.6146651 -0.3784353 0.08458239 0.124708906
000050 a0 44 fb 3d 7c 84 a7 3e 81 47 1f 3e b0 e5 94 be
       0.122689486 0.32718265 0.1555462 -0.29081488
000060 9e da 0b bc e9 cb 1e bf a0 36 34 bf be e7 5d 3e
       -0.008536009 -0.6202989 -0.7039585 0.21670434
000070 71 cf e1 3d cc 6d 88 be 06 33 f5 bc 79 1d f8 be
       0.110258944 -0.26646268 -0.029931556 -0.48459986
000080 d3 86 48 bd 5b 22 da be 89 3c 0b be 12 3d ac 3e
       -0.048956703 -0.42604336 -0.13597311 0.33640343
000090 08 99 00 be ca 10 59 be 90 a5 56 3d 17 c0 b1 be
       -0.12558377 -0.21197811 0.052403986 -0.34716865
0000a0 f0 18 26 bd a3 fd 26 3e b5 a6 94 be 4a f0 9e 3e
       -0.040551126 0.16307692 -0.29033437 0.310427
0000b0 c0 76 6b 3e 94 01 66 be ea b9 86 3d cf a2 49 3e
       0.22994518 -0.2246154 0.06578429 0.19691013
0000c0 f4 42 f5 bc db d4 ab 3e 8c 7b 36 bc 41 93 59 3d
       -0.029939152 0.33560833 -0.011137854 0.053118948
0000d0 e2 28 a3 bd 70 0f 08 bf ba 06 63 3e 08 c0 80 3d
       -0.07966782 -0.53148556 0.22170535 0.06286627
0000e0 aa 46 d0 bb 64 ee 34 3e 17 58 a6 bd 21 f6 86 be
       -0.00635608 0.17669064 -0.081222706 -0.26359656
0000f0 e2 51 9d bc 9f 4f 99 be 23 b7 00 be 23 f2 00 39
       -0.019204084 -0.2994356 -0.12569861 0.00012297234
000100 31 c9 70 3e a9 25 2a 3e b6 b1 f1 3d 37 05 f8 3d
       0.23514248 0.16615929 0.11801474 0.1211037
000110 07 94 f6 bd 12 37 ea ba aa 7c 01 be 3b f5 8f bd
       -0.12039953 -0.0017869195 -0.12645212 -0.07029196
000120 53 dd f8 3b be 2e b6 be 88 a5 63 be d1 30 64 be
       0.0075947433 -0.35582536 -0.22231114 -0.22284247
000130 9b 9b 45 bf 1e 15 b5 3e c7 6c 52 be 08 e6 42 3e
       -0.7719056 0.35367674 -0.20549308 0.19033062
000140 25 d4 b1 3e d8 86 34 bd 3d 60 cd 3d 25 fe 88 3d
       0.34732166 -0.04407391 0.100281216 0.06689099
000150 0b bb db 3c 23 af 0b 3e 06 f4 66 bc 18 cb a3 3d
       0.026822587 0.13641028 -0.014096266 0.079977214
000160 33 67 bc bd 18 24 a1 be 07 4c 33 3d 1f 30 42 3d
       -0.09199371 -0.3147285 0.043773677 0.047409173
000170 55 b1 f7 bd 7c a6 3d be 8f f0 94 be 58 ef 2d 3e
       -0.1209437 -0.1852054 -0.29089782 0.16985834
000180 68 83 86 be 87 e6 ac 3d ae 81 a8 3e 2b 66 d8 bc
       -0.2627213 0.08442407 0.32911438 -0.026415905
000190 7f 0a 00 bd 9d 61 39 3e c8 e2 72 3d 00 63 f8 3e
       -0.03126001 0.18103643 0.059298307 0.4851303
0001a0 bd d0 0a be 80 cb 2e 3d e5 c0 ad 3e e6 c3 69 3c
       -0.1355619 0.04267454 0.3393623 0.014267897
0001b0 db 09 9e 3e ad f7 aa bd df 16 e3 bd ff b9 51 3e
       0.30866894 -0.08348022 -0.11088347 0.20481108
0001c0 02 a9 64 3d 41 bd 99 bd 46 38 2c 3e 9e 04 e7 bc
       0.05582524 -0.075068004 0.16818342 -0.028200444
0001d0 40 aa b5 be 11 6d 77 bd 0e 5c bf bd 48 2b 92 bd
       -0.35481453 -0.06040675 -0.0934373 -0.071371615
0001e0 be 2f 81 be 27 45 07 bd 09 ab 73 3e 24 d2 8a bd
       -0.25231737 -0.033024933 0.23795713 -0.067783624
0001f0 30 a4 a6 bd d1 7b 57 be 19 b3 78 be d4 99 39 be
       -0.08136785 -0.21043326 -0.2428707 -0.18125087
000200 4c 8c 58 3e 46 92 81 be 41 38 73 3e 16 68 87 3e
       0.21147269 -0.2530691 0.23751928 0.264466
000210 0b 94 98 3d c5 97 48 3e 77 da 76 bc 0a d3 02 bf
       0.07450112 0.19589145 -0.0150667345 -0.5110327
000220 d8 d0 b6 bc 5a 4a cd 3e 41 8a e9 3d 89 34 ed 3e
       -0.022316381 0.40095788 0.11403323 0.46329144
000230 87 62 ad 3d 64 56 da 3e f9 55 1d 3e 32 a5 22 bf
       0.08466058 0.42644036 0.15364827 -0.6353332
000240 88 6f b7 be fb a4 f8 bd e9 76 1d 3e ab e8 53 3e
       -0.3582728 -0.121408425 0.15377392 0.20694225
000250 cb 86 8c 3e f7 81 e7 3c ed a5 f5 3e ce f5 cc 3d
       0.2744659 0.028260214 0.47978154 0.10007821
000260 7d c6 c0 be ba f2 dd 3c e2 5d 5b bd 93 47 27 be
       -0.37651435 0.02709328 -0.05355633 -0.16335897
000270 84 74 d7 3d 75 73 91 3e dc 2c 57 be 51 60 23 3e
       0.105202705 0.284084 -0.21013206 0.1595471
000280 dc ac 9e 3b 87 4e a9 bd 3f 17 19 bf 2c e0 18 3e
       0.004842384 -0.08266931 -0.59801096 0.14929265
000290 9f 73 8c 3e a8 51 e0 3d b2 f6 ed 3e 67 ad 83 3c
       0.27431962 0.10953075 0.46477276 0.016073896
0002a0 de 5a c4 3e 83 f2 0f 3e 0c 2b 37 bf ee 6b 13 be
       0.38350576 0.14057355 -0.7155006 -0.1439664
0002b0 1c 87 a5 be 47 79 3f 3e 31 6b 19 bf 99 f6 b7 bd
       -0.32329643 0.18698607 -0.59929186 -0.08982582
0002c0 f6 5b f3 3e 34 3c 0e be ad c5 59 3e 04 5e 79 3d
       0.47531098 -0.13890153 0.21266814 0.060880676
0002d0 6d 04 cb bd 0b 7d 68 be 80 6f 06 3e f9 c6 cd 3d
       -0.099129535 -0.2270395 0.13128471 0.10047717
0002e0 ba f4 81 3d 58 cf 60 3e 52 9e b2 bd 38 8a 95 3d
       0.06345506 0.21954095 -0.087216035 0.07301754
0002f0 ea 05 0e be f8 16 bb 3c 46 81 93 3d 40 9e d5 bc
       -0.13869444 0.0228381 0.07202391 -0.026076436
000300 c7 5a 31 3e a3 3b 1e bd 1f 8c 8e be 04 ca 52 be
       0.17319785 -0.038631093 -0.2784128 -0.20584875
000310 f7 35 2b bf 19 49 fc be 04 18 54 be 58 b1 92 3e
       -0.6687922 -0.4927452 -0.20712286 0.28650928
000320 1c 76 c1 3e e1 88 78 3e 27 0a cd 3e 48 8a ab be
       0.37785423 0.24270965 0.40046808 -0.33503938
000330 18 66 8b 3c 0d fe a7 be b3 a9 2a bf 71 65 16 3e
       0.017016456 -0.32811013 -0.6666519 0.14687134
000340 04 2f 83 bd 89 ff 50 be 1a 1d 7d be c9 d7 a3 be
       -0.06405452 -0.20409979 -0.24718133 -0.32000569
000350 51 ad 8b 3e 62 c4 e9 bd f7 57 1c 3e 7c c5 29 3e
       0.27280667 -0.1141441 0.15267931 0.1657924
000360 0f 97 ae be a1 15 a4 be ca a0 b4 3c 61 3e 33 be
       -0.34099624 -0.32047752 0.022049326 -0.17504264
000370 b1 6a 98 3e 7b 5f 86 3e 3a b3 56 3e 0f ed d0 3e
       0.297689 0.2624472 0.20966807 0.4080586
000380 a4 a8 81 3c 92 2f 0b be eb 90 e8 3d 98 90 39 3e
       0.015827484 -0.13592365 0.11355766 0.18121564
000390 83 68 f5 bd d4 5f 1d 3e 29 7c a4 3d e5 2b cd bc
       -0.11982825 0.15368587 0.08031494 -0.025045345
0003a0 c1 f8 c3 3b f0 1b 04 be d9 59 cc 3c 81 93 1b 3e
       0.0059805815 -0.12901282 0.024945186 0.15192987
0003b0 ba d2 52 3c ab ec 9f 3e 79 be 28 3d 0c 2a a8 be
       0.012867624 0.3123525 0.041197274 -0.3284458
0003c0 0d 90 40 bd 9f 5a fc be ab 54 a8 be bf 20 af be
       -0.047012378 -0.49287888 -0.32877097 -0.3420467
0003d0 fb 15 19 bd 07 d6 98 3e 87 0d ed ba 2d cc 91 3e
       -0.037374478 0.2985079 -0.0018085697 0.28476086
0003e0 ab 83 8b 3e f9 36 be 3e 5b 5b 85 3e df 81 86 bd
       0.27248892 0.37151316 0.2604626 -0.0656774
0003f0 39 6c 9b bd f0 5f 5c 3e d0 4f ba bd e2 62 19 3e
       -0.07589001 0.21520972 -0.09097254 0.14979127

2.bias f4 [64]
000000 8d 6b 33 be 54 49 5a bd 5d df 4d 3e c2 f7 e1 3d
       -0.17521496 -0.053292587 0.20104738 0.11033584
000010 cd 21 1b 3e 19 ce 1b 3d d3 69 49 bd 0b 6f c9 bd
       0.15149613 0.038038347 -0.049173187 -0.09835633
000020 93 8b a3 3a e7 68 14 bd 06 dd e6 3e 22 35 d7 3d
       0.001247751 -0.036232855 0.45090503 0.10508181
000030 17 dd e3 bc b2 f4 24 be 98 81 b3 bd f8 84 a0 3d
       -0.027815385 -0.16108969 -0.087649524 0.07837862
000040 1f 1b 29 3d dc 71 6d be 36 49 d6 be 5c c3 72 bd
       0.04128563 -0.23187965 -0.4185273 -0.05926834
000050 d3 b4 a0 be 8e 14 85 be fa f0 b1 bd 88 cd 69 be
       -0.31387958 -0.25992244 -0.08688541 -0.2283231
000060 d4 fb 75 bd f6 bc 2b 3e a3 39 3b be 88 39 a0 be
       -0.060054615 0.16771302 -0.18283705 -0.31293893
000070 26 62 02 bd 3e 70 cf bd be ad d3 3d e1 0d 24 3f
       -0.031831883 -0.101288304 0.10335873 0.6408368
000080 15 68 c3 3d 1f 95 a0 bd 3f 8f 3d 3c 35 29 72 bd
       0.095413364 -0.078409426 0.011569797 -0.05912133
000090 73 a1 97 bd 3a c6 47 3e 11 4b a6 be 45 2a 20 bf
       -0.07403841 0.19509211 -0.32479146 -0.625645
0000a0 cb f0 d0 bd ed 8f 15 be 0a 97 55 be c6 bc 1e be
       -0.102021776 -0.14605685 -0.20858398 -0.15501699
0000b0 55 b6 11 3e 18 40 2a 3e 43 32 2c be 30 44 74 bd
       0.1422971 0.16626012 -0.16816048 -0.05963534
0000c0 eb 23 d0 3e 09 5a 19 3e 69 66 98 bb 9d a4 49 bd
       0.40652403 0.14975752 -0.00465088 -0.049229253
0000d0 59 11 18 be fb 6c 06 bd 04 03 28 be 67 8d b8 3e
       -0.14850368 -0.032818776 -0.164074 0.3604538
0000e0 62 86 c5 3e 96 4a a7 bd c8 ee 07 3e d2 5d 7f 3e
       0.38579088 -0.08168523 0.13274682 0.24938133
0000f0 3b b7 c0 be 35 cd bd bd fb 5d a9 3e c6 ae 53 bd
       -0.37639794 -0.09267656 0.33079514 -0.05168035

5.weight f4 [64, 64, 3, 3]
000000 5e fb ca 3d d1 7b c0 be af 24 80 be 16 fa 49 3d
       0.09911226 -0.37594464 -0.25027987 0.049310766
000010 d3 3c bd be 0e ce 5b be e6 67 71 3e 5f 60 a6 3e
       -0.36960468 -0.21465322 0.2357479 0.324954
000020 c5 6d a7 be 6c 4c a6 ba 06 47 62 3e 24 f5 22 be
       -0.32700935 -0.001268757 0.22097406 -0.15913826
000030 d8 c6 a5 bd 8e fc 38 bd 16 56 7b bc ea 0e 5f be
       -0.08094567 -0.04516273 -0.015340349 -0.21783033
000040 c5 49 b0 3d e1 bd d7 be 84 5d 5f 3e 4a a9 ad bd
       0.086078204 -0.42137054 0.21813017 -0.08479555
000050 2d fd b9 be 96 ee 52 3c 68 60 41 3e 02 86 23 3d
       -0.3632597 0.012874266 0.18884432 0.03992272
000060 d5 18 c8 bb f5 26 bd 3e 6b 5d a1 3e 1c cc ef 3d
       -0.006106476 0.36943784 0.31516585 0.11708853
000070 9f bf 01 3d 72 01 25 be 61 b6 3c 3e 47 c1 11 3e
       0.031676885 -0.16113833 0.18428947 0.14233886
000080 92 1b c4 bd 15 ec 72 be fe 9f d7 bd 48 61 62 be
       -0.09575571 -0.2372287 -0.10528563 -0.22107422
000090 a4 15 a7 be 8c 4d 13 bd b8 d4 a2 bd b9 01 2c be
       -0.32633698 -0.035962626 -0.07950729 -0.16797532
0000a0 8d 6c 10 3d f5 87 21 be 82 53 87 3d fc f5 ce 3d
       0.035259772 -0.1577452 0.06607725 0.101055115
0000b0 e3 d2 7b 3c f7 c5 2f be c2 2b 93 be f0 c1 f7 be
       0.0153701035 -0.17165361 -0.28744322 -0.4839015
0000c0 71 38 b8 3d f8 4a ee be a2 c5 bc be 81 b1 00 3e
       0.0899514 -0.46541572 -0.36869532 0.12567712
0000d0 0b 8d 68 3b 4a cb dc be 95 88 8b be ba 56 45 bc
       0.0035484459 -0.43123847 -0.2725264 -0.012044603
0000e0 70 41 fb bc 76 5a 5b be 81 a8 98 be 29 d6 7c 3c
       -0.030670851 -0.21421227 -0.29816058 0.015431919
0000f0 1c 70 14 be 0a 89 88 be ce dd 2b be 94 d9 25 3e
       -0.14495891 -0.26667053 -0.1678383 0.1619628
000100 02 ee 04 bf 19 3d 94 bd 51 a8 eb 3c 89 37 86 be
       -0.5192567 -0.07238216 0.028766783 -0.26214245
000110 0c 90 31 bc 9d 9d 0a 3e 1d f0 c1 3d 22 45 3e 3e
       -0.010837566 0.13536687 0.09469626 0.1858106
000120 63 1a df bd 62 7e 08 bf 3e 87 22 be f8 9a af 3c
       -0.10893705 -0.53317845 -0.15871903 0.0214362
000130 6b 3e de 3c ea 21 0d bf 82 5c 1e 3f 55 35 b8 3d
       0.027129373 -0.55129874 0.61859906 0.08994547
000140 b6 fc d0 be 66 8d 67 3e cc 02 b1 3d 32 63 dc bd
       -0.40817803 0.22612533 0.086431116 -0.107611075
000150 b7 81 cb 3d 44 8d 82 3d 6a 8e 16 3e 99 26 97 3d
       0.099368505 0.063746005 0.14702764 0.07380409
000160 fd e3 da 3d a9 b0 b4 3b a7 a2 68 be 3f 21 92 3d
       0.106880166 0.0055142236 -0.22718297 0.071352474
000170 27 7f 80 3e bb 8f 7f be e0 72 ff bd 35 f6 9d 3e
       0.2509701 -0.24957173 -0.124730825 0.30851904
000180 c3 d5 e1 be 53 60 8a be 3b 40 d1 3d cc 3a 80 bd
       -0.441084 -0.27026615 0.10217329 -0.062612146
000190 fc ec a5 be 03 61 26 be 0b 52 a1 3c 4b 28 47 be
       -0.32407367 -0.16247945 0.019692441 -0.19448964
0001a0 42 99 3b be 76 86 20 3e b4 82 07 3d 9a ca 67 bd
       -0.18320182 0.15676293 0.033083633 -0.0565897
0001b0 d3 f3 03 3e 3d 62 d4 bd 17 f1 cd 3d 8f af 2c 3d
       0.1288598 -0.103703 0.1005575 0.042159613
0001c0 b5 53 ce 3c 95 3f 98 3e 8b ef 0b 3e c8 d1 84 3e
       0.025186399 0.2973601 0.13665597 0.259413
0001d0 d6 f8 e1 3e cf 56 ec 3d 84 2f 06 be bb 09 78 be
       0.4413516 0.11539995 -0.13104063 -0.24222462
0001e0 5c 15 eb 3d 01 4b e2 3d ec 4e ae bd 27 94 f5 3d
       0.11478683 0.11049462 -0.08511147 0.119911484
0001f0 b5 01 dc 3d cd 2a c2 3c 3c 3a 6d be 90 61 8a 3d
       0.10742513 0.02370205 -0.23166746 0.0675689
000200 19 8a 5c be 43 56 89 bc d9 2e 9b 3d 86 a1 92 be
       -0.21537055 -0.016764766 0.07577295 -0.28638858
000210 88 b1 5f bd b0 63 3f 3c 41 5d 00 3e 91 56 5a 3e
       -0.054612666 0.011681482 0.12535574 0.21322085
000220 88 0e 95 bd 16 1d 43 be 26 d2 f1 3d ff 62 c7 3d
       -0.07278162 -0.19054064 0.11807661 0.09735679
000230 61 4c 8b ba dd a8 b3 bd f4 e9 1a 3d a5 e8 26 3c
       -0.0010627621 -0.087724425 0.03782077 0.010187303
000240 23 f7 85 bd 82 77 ee bd eb 79 e1 bd b5 0a 81 3d
       -0.06541278 -0.11643888 -0.11009582 0.0630087
000250 b6 70 bb 3d 69 08 02 be e2 f3 5f 3e 73 13 4f be
       0.09152357 -0.1269852 0.21870378 -0.20222263
000260 35 a8 81 bd 76 8d 27 be fa eb 81 3d 35 4d c8 bd
       -0.06330911 -0.16362557 0.06343837 -0.09780351
000270 e4 10 44 3e 05 a0 53 3d 54 0f 86 be 1b a3 ee 3d
       0.19147068 0.05166628 -0.2618357 0.11652204
000280 bf e5 c1 bc a5 23 e3 be ba e6 9b be 23 50 8e bd
       -0.023669122 -0.44363132 -0.30449468 -0.069488786
000290 43 7b 00 3e 72 f5 70 bd ec 66 5b bd a4 87 c9 bd
       0.1254702 -0.058827825 -0.05356495 -0.098403245
0002a0 63 f3 05 3d c1 67 f6 3c 83 17 7d bd 47 46 6d 3d
       0.032702815 0.03007877 -0.06179 0.05792835
0002b0 30 d2 83 be 3d ec 1e bf e2 8b 9b 3e 86 fe 9e 3d
       -0.25746298 -0.6207922 0.3038016 0.0776339
0002c0 46 f9 2f be a4 53 6a 3d ac cb 12 bd e6 2f d8 bc
       -0.17184934 0.057208672 -0.035838768 -0.026390027
0002d0 c2 6c b5 bd bc 23 4f 3e 9a 53 95 3d b1 fd 86 3e
       -0.088586345 0.20228475 0.07291336 0.26365426
0002e0 37 3d 5f 3e 4a 73 60 be 1b e7 3a 3e 54 7b 70 3e
       0.21800695 -0.2191898 0.18252222 0.23484546
0002f0 29 b8 1e 3d bf c9 ce bd ed 19 00 bf c7 2c c4 be
       0.038749848 -0.10097074 -0.5003956 -0.38315412
000300 70 ac ac 3c 52 57 41 be 88 85 e3 be 05 bd ab 3e
       0.021078318 -0.18880966 -0.44437814 0.33542648
000310 8a 6d f4 3d 79 4f 2c be ae d9 ec bd a9 e6 3b be
       0.119349554 -0.16827191 -0.115649566 -0.18349709
000320 d8 9a a2 be 66 ea af bd fe 8e cd bc f3 f9 48 be
       -0.3175876 -0.0858963 -0.025092598 -0.19626598
000330 21 65 96 be 54 aa 97 be d3 60 9a be 0d 80 0c 3b
       -0.2937403 -0.29622138 -0.30151996 0.002143863
000340 21 0b 6b be e3 59 b9 be a1 9d d6 3e 4e f4 56 bd
       -0.22953464 -0.3620139 0.41917136 -0.05247908
000350 3d 32 d6 bd fe d7 3f 3d 70 94 0a be fd 73 84 be
       -0.10458801 0.046836846 -0.13533187 -0.25869742
000360 a2 ab 2e be c5 99 79 be 6a 9f fe bd a6 8d 15 3d
       -0.1705766 -0.24375065 -0.124327496 0.03651204
000370 7d 14 1e bd cc 03 62 bc cf ba 21 3e 1c e5 53 3e
       -0.038593758 -0.013794851 0.15793918 0.20692867
000380 a5 47 b4 3d 14 1b 4a be 18 05 45 3e 68 6b f8 3d
       0.088027276 -0.19736892 0.19240224 0.12129861
000390 90 9e 3a be 56 fe c5 3d f1 08 16 be 16 67 a5 3d
       -0.1822455 0.09667651 -0.14651848 0.08076303
0003a0 6e 4f 59 3e 22 c1 90 3e f1 c0 68 3d 98 0e d9 be
       0.21221706 0.2827235 0.05682463 -0.42393947
0003b0 f1 a6 87 be d0 f5 5f 3e ff 79 1c bd cc 54 b2 bd
       -0.26494554 0.21871114 -0.038202282 -0.0870758
0003c0 50 26 a0 3e 62 b1 38 bd f2 06 0d be aa d0 27 bd
       0.3127923 -0.04509104 -0.1377218 -0.040970482
0003d0 f9 a9 e8 bd 65 5b e1 be 59 67 c6 3e 1b ff f2 3d
       -0.11360545 -0.4401504 0.38750723 0.11865064
0003e0 5c df dc be 00 44 37 3e 9d 04 b0 bc 24 27 38 be
       -0.4313916 0.17897034 -0.021486575 -0.17983681
0003f0 f1 e0 3f be bb 6e 84 bd 88 23 ee 3d 85 ba a1 3d
       -0.18738152 -0.06466433 0.11627871 0.07896904

5.bias f4 [64]
000000 72 e1 69 be fd 51 cf 3e 48 0e 31 3f ef ad be be
       -0.22839907 0.4049224 0.69162416 -0.37242076
000010 2b 70 09 be 21 f1 d4 3d 2b 4f 27 3d 05 df 30 3f
       -0.13421695 0.10397554 0.040846985 0.690903
000020 06 0e c6 bc 1d 30 fe bd f2 8f 87 bd 60 ef a6 be
       -0.024176609 -0.12411521 -0.06619252 -0.32604504
000030 8e a4 80 bd 9d 22 05 be 08 1e 59 be 84 f7 30 bf
       -0.06281386 -0.13001485 -0.21202862 -0.6912768
000040 ac ac 26 3f 22 d6 60 bd 4e 74 40 be ea 26 63 3f
       0.65107226 -0.054891713 -0.18794367 0.88731253
000050 0c 91 48 3e 12 c1 ba 3e 9a 72 e1 be 35 6f 24 3e
       0.19586581 0.36475426 -0.44032747 0.16058047
000060 6d b4 84 bd b3 2b c6 3e a8 cc d0 be 9e b2 be bd
       -0.06479726 0.38705215 -0.4078114 -0.09311412
000070 f1 52 93 3d 05 ba f0 be cc 0b 19 bd fb f5 e7 3d
       0.07193554 -0.47016922 -0.037364766 0.11326214
000080 52 49 21 be 7c be 70 3d 39 cf 8e 3d eb ff 2b be
       -0.15750626 0.05877541 0.06973118 -0.16796844
000090 04 f3 b1 3d 22 5f 0a bf 18 9f cb be f0 32 ba bc
       0.0868893 -0.5405141 -0.39769816 -0.022729367
0000a0 9f ee 5d 3e c8 80 4b be 10 92 47 be f2 29 91 bd
       0.21673058 -0.19873345 -0.19489312 -0.070880786
0000b0 76 96 9d be d6 c9 61 be 92 5e 27 be 36 9b 0b 3e
       -0.30778855 -0.2204965 -0.1634467 0.13633427
0000c0 d7 26 b4 bc 98 06 d4 3e b1 29 8c 3d a1 24 86 be
       -0.021991177 0.4141128 0.068438895 -0.2619982
0000d0 71 3f f3 bd 39 e6 fc 3c f0 1f fd 3e bf 9e 64 bd
       -0.11877335 0.030871497 0.4943843 -0.055815455
0000e0 39 4e 3d be f8 8d 23 3e 8e e7 12 be 56 ba ac be
       -0.18486871 0.15972126 -0.14346144 -0.33735913
0000f0 a1 39 24 3f 61 44 e5 bd 11 c1 76 bd 73 85 03 3f
       0.64150435 -0.11194683 -0.060242716 0.513755

7.weight f4 [64, 64, 3, 3]
000000 26 d2 29 be 98 7c c1 3d 0d 47 87 bc 51 b0 ad be
       -0.16584072 0.094475925 -0.016513372 -0.3392358
000010 b6 2b 27 bd c0 8f 31 bd 34 48 2e be b7 cf 68 be
       -0.04081317 -0.04334998 -0.17019731 -0.22735487
000020 fc 68 8e 3e de 09 8a be a7 84 5b 3e 9f c5 c5 3d
       0.27814472 -0.26960653 0.21437322 0.09656834
000030 d6 ba 09 bf dc 6c 24 be 08 db dd bd cc ed 1f bf
       -0.53800714 -0.16057152 -0.108327925 -0.62472224
000040 28 ce e9 bd a2 ad 4a 3e 80 5c 60 3e d9 7c 7a 3c
       -0.11416274 0.19792798 0.21910286 0.015288555
000050 23 ae bb be c6 f4 4a 3e a2 30 24 3e d5 b9 05 be
       -0.36656293 0.19819936 0.16034177 -0.1305917
000060 81 5f 32 3e f2 46 76 3e a5 13 f7 3d 9f 47 51 3e
       0.17419244 0.24050501 0.12064294 0.20437478
000070 20 26 7b bc a2 c7 72 3d 82 1d 99 3e ea 99 4c 3d
       -0.015328914 0.059272416 0.29905325 0.04995147
000080 55 27 65 bb 04 6c 4a 3e 10 93 30 bc eb ea 1a be
       -0.003496607 0.19767767 -0.01077725 -0.15128677
000090 41 33 52 be eb 02 59 3d 98 6a 90 3e 5e c0 d6 be
       -0.20527364 0.0529813 0.28206325 -0.4194364
0000a0 71 48 d0 bd 2d 88 36 be 2d f5 09 bf 1b a8 5c be
       -0.10170067 -0.17825384 -0.53889734 -0.21548502
0000b0 43 25 83 3c 59 46 81 3e 86 d8 b0 bc 08 ed c0 bc
       0.016008979 0.25248984 -0.021587621 -0.023550525
0000c0 c6 52 04 3e f3 a3 ef 3d 9d d5 b9 be 45 fa ed bc
       0.129222 0.11701193 -0.36295786 -0.029050002
0000d0 42 50 aa be 99 c2 30 be 76 5e 23 be 16 c6 99 3d
       -0.33264357 -0.17261733 -0.15954003 0.07508485
0000e0 9e 0e 35 3d b7 c4 b9 be e9 a3 48 3d c5 6b 16 3e
       0.044203393 -0.36282894 0.048984442 0.14689548
0000f0 2f 91 4b be da b6 2f 3e a5 d4 6a 3d b5 7f 10 3e
       -0.19879602 0.17159596 0.0573317 0.14111216
000100 cf 8c 91 bd 60 6c d7 bd 9e a7 20 bd 39 1b 69 be
       -0.07106935 -0.10518718 -0.039222352 -0.22764291
000110 8d f8 15 be 50 f0 01 be 1d 4c b9 bd ca fe e1 3d
       -0.14645596 -0.12689328 -0.090477206 0.11034925
000120 d5 a0 11 be 55 e1 2d be a3 a8 ed 3d f6 16 f4 bd
       -0.14221509 -0.16980489 0.116044305 -0.11918442
000130 d7 91 f6 be 24 04 19 be c1 10 3b 3e 61 dc db be
       -0.48158142 -0.14942986 0.1826811 -0.42941573
000140 07 e5 80 bd e1 9b 49 bc 24 74 5c bc a8 52 ab 3d
       -0.062936835 -0.012305231 -0.013455424 0.08365375
000150 7a 89 71 3e 28 18 84 3e e8 93 a3 3e 0f cf 7a 3e
       0.235876 0.2579968 0.3194878 0.24493049
000160 d9 c9 6e 3e 20 19 45 3e 5e a9 a9 3d 12 6c 7d 3d
       0.23319186 0.19247866 0.08284257 0.061870642
000170 f8 19 96 bd 8f d1 e9 3d fe 42 10 3d 82 14 72 bc
       -0.07329172 0.11416923 0.03522014 -0.014775397
000180 9a ae 44 bc ee 86 8b 3d 44 58 7b be fc 12 90 be
       -0.012004519 0.06812845 -0.2454539 -0.28139484
000190 6f d8 53 be d6 19 f0 bd 93 7b e6 bd 9b d3 0e 3e
       -0.20688032 -0.11723678 -0.11254039 0.13947909
0001a0 0b fc 25 3e 09 fa 6d be 2b c7 b9 be 53 4c a7 3e
       0.16209428 -0.23239912 -0.36284766 0.32675418
0001b0 29 c8 3f bc 4c da 77 bc 94 00 e7 3a 60 69 90 3c
       -0.011705437 -0.01512773 0.0017624074 0.017628372
0001c0 de 4f ab 3c e2 ac 41 bc 63 af 3b 3d 1a fe d5 3c
       0.020912107 -0.011821004 0.04582156 0.026122142
0001d0 f8 ab 16 3c 1e a6 70 be c0 cc 7b bd b4 3d 0c 3e
       0.009196274 -0.23500869 -0.06147456 0.13695413
0001e0 65 30 7f ba 35 1a ae 3d 02 75 90 3d e6 e7 9e bd
       -0.00097346894 0.08501092 0.070535675 -0.07759075
0001f0 43 ed 51 bd 96 55 76 be 8f 3e 21 be 03 af 1f be
       -0.05125166 -0.24056086 -0.1574652 -0.15594105
000200 80 57 f6 3d 46 16 92 3d 4d 49 50 bd 8d a2 8b bd
       0.12028408 0.071331546 -0.050851155 -0.068181135
000210 61 1f fb 3d 75 c0 0e 3d 8a 8a c2 3d 96 1f e7 bc
       0.122618444 0.03485151 0.094990805 -0.028213304
000220 8c 59 b2 bd 2d 8b a3 3d 56 72 0f 3c c5 53 1b be
       -0.08708486 0.0798553 0.008755287 -0.15168674
000230 f1 a7 79 be 79 a4 8e 3e 5d 08 c1 bd f8 07 08 be
       -0.24380471 0.27859858 -0.09425423 -0.1328429
000240 d3 0b ae 3d 55 7b 11 3e d1 c2 58 3d 0a 94 ea bd
       0.08498349 0.14207204 0.052920166 -0.114540175
000250 51 95 aa 3c 88 65 a7 bd ed 24 01 bd f8 ff 07 bd
       0.020823153 -0.081736624 -0.031529356 -0.033203095
000260 0f a6 9e bd 3c 98 02 3d ad bd c2 3b 34 89 a5 3c
       -0.07746517 0.031883463 0.0059430213 0.020207025
000270 6d 4e 23 bd 6b 6e 3f 3c 9b 40 8c 3c b3 85 a4 bd
       -0.039869715 0.011684041 0.01712065 -0.080333136
000280 fa 44 bd bb 88 3c 23 bc 14 08 0f 3e fe 8b c9 bd
       -0.005776045 -0.009963162 0.13967925 -0.098411545
000290 35 fd 01 3e 9b 04 b9 3d ef fe e4 3d 04 41 0f bd
       0.12694247 0.090340815 0.11181437 -0.034974113
0002a0 c5 19 04 3e da b4 19 bd 75 6c 29 be c2 b6 84 bd
       0.12900455 -0.03752599 -0.1654528 -0.06480171
0002b0 64 07 8e 3d 28 f1 57 bd 07 b0 66 bd d4 2c 80 3d
       0.069350034 -0.05272022 -0.056320217 0.0625855
0002c0 01 2b 2c 3c ce 91 1f 3e 96 91 a0 3e c6 d5 e5 3d
       0.0105083 0.15582964 0.31361073 0.11222415
0002d0 73 76 90 3d f9 4d 49 3e ed 2d bc bd c5 37 bf bd
       0.070538424 0.1965865 -0.09188447 -0.09336809
0002e0 c8 e5 51 3e fa 88 87 3e 69 57 65 3e 19 f5 ca 3e
       0.20497811 0.26471692 0.22396626 0.3964012
0002f0 68 bd 32 3e 80 a1 98 bd 52 d3 3e bd 8e 00 05 3d
       0.17455065 -0.07452679 -0.04658825 0.032471232
000300 a8 5f 5a be 43 2c 2d be 1f 29 d3 bd e1 88 2b be
       -0.21325552 -0.16911416 -0.103105776 -0.16751434
000310 83 91 a9 3c 08 62 5e 3d 5b 43 0e bd bd 49 86 3d
       0.020699268 0.05429271 -0.034732204 0.06557033
000320 1f 11 7e 3e 29 ba ae 3d d1 8e ab 3d 16 22 2c 3e
       0.24811219 0.08531601 0.083768494 0.16809878
000330 01 03 bd be a0 85 9b be 52 c0 2a be 7c 3c 9a 3d
       -0.36916354 -0.30375385 -0.16674927 0.07531068
000340 79 29 8b 3e c3 8d 50 bd 24 fb 81 be db ba e6 3d
       0.2718008 -0.050916445 -0.25386918 0.112661086
000350 3a 11 d1 bd 27 10 12 bf 71 7a 8a bc 27 11 a5 bc
       -0.10208364 -0.57055897 -0.016904088 -0.02014978
000360 6a e0 11 3c 35 b2 19 bc e2 95 7d 3d 23 d4 6c 3d
       0.008903602 -0.009380867 0.061910518 0.057819497
000370 a9 e5 a7 3d e9 35 33 3d d0 00 34 3d 1d 47 87 3c
       0.08198101 0.043752585 0.043946087 0.016513402
000380 1c 10 84 3c 4c 8e a2 be aa 2f da 3d 76 2d a0 3d
       0.016120963 -0.3174919 0.106536224 0.07821171
000390 e1 b1 1d bf d2 b6 7f 3d 23 7a bf bc 8e 49 4f bf
       -0.61599547 0.06243021 -0.023373669 -0.8097161
0003a0 9b 4d 28 3d 5a c3 3c 3e 3f c0 54 be 89 3b 07 be
       0.041089635 0.18433896 -0.20776461 -0.13206305
0003b0 8e 25 6f 3e 98 1a 6f 3b 1f 05 6c be bd e6 60 3d
       0.2335417 0.0036484357 -0.23048829 0.05490755
0003c0 da 7d 09 be dd b5 89 be 1d 7f 44 be 44 99 85 3e
       -0.13426915 -0.26896563 -0.19189115 0.26093495
0003d0 51 dd 98 3e ea eb eb bd 12 63 b8 bc bc 8d 86 3e
       0.2985635 -0.115196064 -0.022508178 0.2628001
0003e0 3a 26 13 3e cf 78 ad be fc 26 86 bd 8a fc 41 3e
       0.14370051 -0.33881232 -0.065504044 0.18943992
0003f0 b8 4f 17 bf ca 95 80 bc 01 41 03 3f a1 a6 a5 be
       -0.59106016 -0.015696425 0.51271063 -0.3235369

7.bias f4 [64]
000000 ac d7 09 bc 9a 76 37 3d d1 33 3b be c0 5c 72 3f
       -0.008413237 0.04479084 -0.18281485 0.94672775
000010 78 aa cd be 35 6f 59 3d 74 0e 13 bf 64 0a 62 bd
       -0.4016912 0.05308457 -0.5744393 -0.05518569
000020 11 a6 e8 3d 09 1f 90 be 99 1d 26 3d 49 f4 78 3f
       0.113598 -0.28148678 0.04055557 0.9724775
000030 a6 df 70 3e 2c d9 34 3d 1e aa 92 be 65 55 37 be
       0.23522815 0.044152424 -0.28645414 -0.17903669
000040 84 bb a8 3e 5b 10 cc bd 44 73 f0 bc 1f 4c 33 bd
       0.32955563 -0.09964057 -0.029351838 -0.043773767
000050 03 74 ba bc 0e 47 3a 3e bb b9 88 3d 2e bf fd bc
       -0.022760397 0.18191168 0.0667605 -0.03097495
000060 2b 19 71 be 8b 49 a7 3e a9 42 ec bd 49 4a d9 be
       -0.23544757 0.32673296 -0.11536152 -0.42439488
000070 76 84 c9 be 72 d0 69 be ee 8d c3 3d 29 6a c8 3d
       -0.39358872 -0.22833422 0.09548555 0.097858734
000080 24 85 a2 bd 69 f8 28 bd 18 22 10 be aa ed 90 3d
       -0.07935551 -0.041252527 -0.14075506 0.07076581
000090 ea 66 5d bd f1 5a 27 3e 0b 16 34 be 48 34 97 3e
       -0.054053225 0.16343285 -0.17586534 0.29532075
0000a0 1e 4c 58 bd 84 b9 4c 3d 2f 3f 3a be 7a 06 c8 3d
       -0.052806966 0.04998161 -0.18188165 0.0976686
0000b0 ad d8 d1 be 6b 04 8f be 66 22 a0 3e c2 1b 5c 3d
       -0.40985623 -0.27933058 0.31276244 0.05373741
0000c0 bf 9e cd bd 59 c5 6c 3f 8f c6 bf bd 73 f8 3b 3e
       -0.10040044 0.9248863 -0.09364044 0.18356495
0000d0 a7 4d 4f be 30 03 86 3e 9c 98 77 be 66 80 cc be
       -0.20244466 0.26174307 -0.2417931 -0.3994171
0000e0 18 51 fa 3c cf 1e a5 be 56 97 b8 bd bf 32 c1 3e
       0.030556247 -0.32250068 -0.0901324 0.3773403
0000f0 72 cf 8f be 77 25 c5 3d 3a d1 16 3e 12 d8 31 3e
       -0.28087956 0.096262865 0.14728251 0.1736758

10.weight f4 [64, 64, 3, 3]
000000 0f 00 a3 bd b8 07 db bc 91 f6 ad bc d6 2c 7f bd
       -0.079589956 -0.026737079 -0.021235736 -0.06229862
000010 89 02 81 bd ba 7d ab bc 71 13 33 bd 4b 38 0b bd
       -0.06299312 -0.020933975 -0.043719713 -0.033989232
000020 05 d7 e0 bc 1e ff f6 bc 7f 7e e0 bc 82 38 09 3d
       -0.02744628 -0.030150946 -0.027404068 0.033501156
000030 d2 e3 a5 bd 9c 24 3a bd 67 12 8a bb 34 46 43 bc
       -0.08100094 -0.04544507 -0.0042136195 -0.011918593
000040 9b ac 82 bd 24 53 32 3c 5b aa 8b bc 88 d2 4f bd
       -0.06380578 0.01088408 -0.017049005 -0.050737888
000050 5f eb a6 bc 2b d8 87 bd ab 8d 23 38 66 17 05 bd
       -0.020375906 -0.06633028 3.8994167e-05 -0.032493018
000060 b2 9b 6e bd 54 33 29 bd 78 8f aa bc 29 82 dc bc
       -0.05825395 -0.041308716 -0.020820364 -0.026917534
000070 d6 59 8c bd 0a c9 53 bd 10 88 78 bd 18 9b 8e bc
       -0.06853072 -0.051705398 -0.060676634 -0.017407939
000080 4b e5 ff bc ed ae 8f bd bc 65 e8 3b 36 54 aa bd
       -0.031237265 -0.07015786 0.007092206 -0.08316843
000090 14 5e 97 bc a1 04 80 bd a7 d0 53 bd ec 8d 2f bd
       -0.018477477 -0.06250883 -0.05171266 -0.042859957
0000a0 b8 6c fe bc 69 c2 9c bd 05 4b fa bc fd d2 67 bd
       -0.0310577 -0.07654268 -0.03055335 -0.0565977
0000b0 c6 93 23 bd a3 62 53 bd 70 f0 a5 bc e1 5e 98 bd
       -0.03993585 -0.05160774 -0.020256251 -0.07439972
0000c0 f3 bf 84 bd 1a bc b8 bc 40 c1 8f bd 8d 7f 2b bd
       -0.06481924 -0.022550631 -0.070192814 -0.04186969
0000d0 db d8 18 bd ec ed 2c bd f5 aa 11 bc 72 db ad bd
       -0.037316184 -0.042219087 -0.008890857 -0.084891215
0000e0 ef 2c 98 bb 04 ab 39 bc 5a b5 8b bd f5 92 a3 bd
       -0.0046440284 -0.011332277 -0.068216994 -0.07987014
0000f0 ff 79 8e bd 47 cd 1d bd df 30 3f bd 09 82 da bc
       -0.06956863 -0.038525846 -0.046677466 -0.026673334
000100 b4 0f b2 bd f1 55 a0 bd 27 c1 c5 bc 49 bc a8 bc
       -0.086944014 -0.07828892 -0.024139954 -0.020597594
000110 0c 66 aa bd 81 2d dd bc 7f fd 44 bd a0 28 9f bc
       -0.08320245 -0.026999237 -0.048093315 -0.019428551
000120 38 4d 7e bd ad 90 a1 bc ae dc 4f bd 45 fb 69 bd
       -0.06208536 -0.019722307 -0.050747566 -0.057124395
000130 80 14 11 3c 88 bc 13 bd 89 cb fe 3b 5b fc bd bc
       0.008854985 -0.03606847 0.007775728 -0.023191622
000140 b6 e0 e2 bc c9 f7 ac 3c 5e 23 0d bd 74 28 db bc
       -0.027695041 0.021114247 -0.034457557 -0.026752688
000150 54 fb 24 bc 02 ff 45 bc d0 cd 18 bc c1 6c 1b bd
       -0.010069687 -0.012084724 -0.009326413 -0.037945513
000160 3a a4 4d 3a 75 71 cb bc 03 c7 92 bc 62 60 a7 bd
       0.0007844601 -0.024834374 -0.017917162 -0.081726804
000170 ae 33 61 bd fe 16 90 bd 9a 25 24 bd 46 06 83 bd
       -0.054980926 -0.070356354 -0.040074922 -0.06397681
000180 56 df 3e 3c 1b 42 94 bc 7d 18 8b bd fe 0f 66 bd
       0.011649927 -0.018097928 -0.0679178 -0.056167595
000190 73 a1 61 bd 4e 3d 47 bd 39 3a ab bd 6b c3 8c bc
       -0.05508561 -0.04864245 -0.083607145 -0.017183026
0001a0 32 29 3f bd 73 df 4b bd 61 d6 56 bd f9 78 c8 bc
       -0.046670146 -0.049773645 -0.05245054 -0.024471747
0001b0 ac 58 c9 bc f6 18 f7 3c 9a f0 5a 3c 32 9d 98 bd
       -0.024578415 0.03016327 0.013363028 -0.074518576
0001c0 27 98 10 bd c7 1b fd bc d8 6b 05 bd a5 6d cc 3c
       -0.035301354 -0.030897034 -0.03257355 0.024954626
0001d0 4c ea 0b 3d 3b a5 06 bd 42 d7 96 bc d2 7b 18 bd
       0.03415899 -0.03287242 -0.01841319 -0.03722746
0001e0 dd 18 29 bd 33 7d 86 bc a6 af 0e bd ac 51 18 bc
       -0.041283477 -0.016417122 -0.03483548 -0.009296816
0001f0 05 39 b1 bc b0 de dc ba e8 50 a3 bd b6 6d 82 bc
       -0.021633634 -0.0016851034 -0.07974416 -0.015921455
000200 6a e8 e5 bc 4f 1a 2f bd bd a7 a8 bd 13 00 7e bd
       -0.028064925 -0.0427497 -0.082351185 -0.06201179
000210 05 00 35 3c ea ff f9 3c 2b 93 a8 3a 8e 93 42 bd
       0.011047368 0.030517537 0.0012861242 -0.047504
000220 ab c3 f9 bc 98 0f c8 bc f3 10 94 bd 29 36 01 bd
       -0.03048881 -0.024421498 -0.07229795 -0.03154579
000230 17 ca 78 bb 1b d0 8c bc 2a ce 61 bd 2e 6a d2 3c
       -0.0037962252 -0.017189076 -0.055128254 0.025685396
000240 3d 35 11 bc d8 fd 60 bc 0c 3b 14 bd dd 32 8e bb
       -0.008862791 -0.013732396 -0.036189124 -0.0043395595
000250 a8 3b ef 3c 47 d1 4e 3d 6a 89 08 3c 17 30 55 bd
       0.029203251 0.05049255 0.008333543 -0.052047815
000260 95 2e 7e bc 41 6f ee 3c 84 11 20 3d 26 c4 3a bd
       -0.015514036 0.029105784 0.039079204 -0.045597218
000270 60 7b 06 bd 75 b4 b5 3c 8d ec 80 bc c7 c5 ac 3c
       -0.032832503 0.022180775 -0.015737796 0.021090401
000280 15 2a 16 bc 56 4c 19 3d 17 0e 23 bd ff f5 08 3c
       -0.009165307 0.037426315 -0.03980836 0.008359431
000290 97 dc 72 bd 88 d0 1b bd f7 9c 53 bd 90 70 ff 3b
       -0.059292402 -0.038040668 -0.051663365 0.007795401
0002a0 33 54 49 bb 59 6a 89 bd 89 28 75 bd 33 bc 3c bc
       -0.0030720353 -0.06709737 -0.05985311 -0.01151948
0002b0 07 f4 fd bb ef 64 0b 3d 34 e6 31 bc 90 86 d6 3c
       -0.0077500376 0.034031805 -0.010858107 0.026187211
0002c0 21 8d 12 3c 2f c7 ad 3c 5f c1 e4 3c 3d 98 8b 3c
       0.008944781 0.021213142 0.027924238 0.017040366
0002d0 ff aa 01 3d 6a ad a8 bc f5 36 51 bd 94 ee 50 bd
       0.031657215 -0.020590503 -0.0510778 -0.051008776
0002e0 9f a0 82 bd c7 a8 68 bd 35 23 7c bd cc c3 60 bd
       -0.06378292 -0.056801584 -0.061557014 -0.054874226
0002f0 2d d0 e6 3b dc f1 34 bd 64 99 f0 bc d8 c9 61 bd
       0.0070438595 -0.044175968 -0.029370017 -0.055124134
000300 60 5b 90 bc 46 61 78 bd 81 92 68 bd 74 9b 42 bd
       -0.017621696 -0.060639642 -0.056780342 -0.047511533
000310 d7 d9 5c 3b 65 1d d8 3b 53 64 50 bc 97 f5 88 bd
       0.0033699179 0.006595301 -0.012719232 -0.066874675
000320 3b 5d 4a bd 10 14 85 3a cd 14 3d bb 8d 2b 01 bd
       -0.049405318 0.0010153074 -0.002885151 -0.031535674
000330 10 d3 99 bd 92 fd 22 bd 85 9c 1f bd 14 aa be 39
       -0.0751096 -0.039792605 -0.038967628 0.00036366342
000340 1c a7 eb 3a f9 37 d4 bc e8 b6 eb bb 27 99 5d bc
       0.001797888 -0.025905596 -0.007193435 -0.013525284
000350 7f 58 b6 3a b0 cb 81 bc f3 66 19 3d 02 af 08 3d
       0.0013911872 -0.015844196 0.037451696 0.033370025
000360 50 c2 4b bd 05 2e 50 bd 59 6a 68 bd 56 25 1a 3c
       -0.049745858 -0.050825138 -0.056742046 0.009408316
000370 c3 fd e5 3c 4d 17 36 3d 92 0d a6 3b 91 9a fd 3b
       0.028075105 0.044455815 0.0050675357 0.007739373
000380 ab 32 f1 bc 3d f9 86 bd 71 80 4b bb 43 01 31 bd
       -0.029443106 -0.06590507 -0.00310519 -0.043214094
000390 13 40 8e 3c d8 5d 83 bd 8a 69 ac bd cc 42 46 3b
       0.017364537 -0.06414384 -0.084185675 0.0030252216
0003a0 2f 61 88 bd 1f ef 27 bd 6f fc 8a bd a0 e4 c1 3a
       -0.06659161 -0.040999528 -0.06786429 0.0014792867
0003b0 e0 11 1e bd e3 8f 28 bc 51 19 3e bd fc 2f bb bb
       -0.038591266 -0.0102882115 -0.046410862 -0.0057125073
0003c0 01 6c 34 bc a6 0e e6 bb 9b 94 fa bc dc 6e cc 3b
       -0.011012078 -0.007020789 -0.030588439 0.0062388014
0003d0 f0 39 90 bc 7f 0a 23 bd dc b3 0c 3d 14 6d 83 bd
       -0.017605752 -0.03980493 0.034351215 -0.064172894
0003e0 73 d7 85 bd 93 e2 0a 3d 2d a8 df bb e6 de ea bc
       -0.06535234 0.033907484 -0.006825468 -0.02867074
0003f0 bd 76 db 3a 4c 28 07 38 a4 44 0f 3d 01 26 74 bc
       0.0016743761 3.2224038e-05 0.03497757 -0.014901639

10.bias f4 [64]
000000 5a 25 5b bd c2 e1 14 bf 50 b8 70 3f 87 10 fa be
       -0.053502418 -0.5815698 0.9403124 -0.48840734
000010 98 98 0f be 2e fb 20 3f c2 1a f4 3d c3 fe 0c bf
       -0.14023054 0.6288327 0.11919166 -0.55076236
000020 91 a8 42 bd c2 02 f4 3e ab 8a 49 3f ab dc ef be
       -0.04752404 0.47658354 0.78727216 -0.46848044
000030 da 64 8c 3c 22 bf a7 be ba 9b 71 3e 45 c8 6d be
       0.017137934 -0.3276301 0.23594561 -0.23220928
000040 fb 6d 67 3e f8 54 04 3b 9a 42 c5 bd f3 f1 3b 3e
       0.22600548 0.0020192247 -0.09631844 0.18354015
000050 47 d6 38 be dd 24 b3 3e 08 e6 a7 3c c8 80 b3 3e
       -0.1805049 0.34989062 0.02049543 0.3505919
000060 cf 2e f2 3e c0 72 48 be 73 c4 50 3e eb 26 ea bd
       0.47301337 -0.19575024 0.2038744 -0.11433204
000070 da 1c ca bd 58 92 04 be dd 5b d4 3e 96 70 bd be
       -0.09868784 -0.1294645 0.41476336 -0.3699996
000080 06 88 fd be f5 74 68 bf f5 77 2f bf 4f 11 47 3f
       -0.4951784 -0.9080346 -0.68542415 0.77760786
000090 a9 86 8b bc 00 68 e7 3b 18 7c 2c bf e0 70 1d 3f
       -0.017031984 0.0070619583 -0.6737685 0.6150036
0000a0 0f 16 45 3f 5b 85 9c bd 35 23 52 3f 00 85 47 3f
       0.76986784 -0.07642623 0.8208497 0.77937317
0000b0 83 14 37 3c 04 54 17 3f 68 df 0d 3f 36 87 40 bf
       0.011174324 0.5911257 0.55419016 -0.75206316
0000c0 d1 c3 44 3f 25 d0 46 3d 2b 24 8a be e7 28 44 3f
       0.7686129 0.048538346 -0.2698072 0.7662491
0000d0 b0 71 e6 3d 1a db b7 bd c1 19 fc 3e 29 7d aa 3e
       0.11252153 -0.08977337 0.492384 0.33298615
0000e0 cb 17 a7 be 11 40 26 3d 51 c8 09 bf 1e de 4b be
       -0.3263534 0.040588442 -0.53821284 -0.1990895
0000f0 fb 39 9b 3e 90 b1 ac 3e 56 76 28 be 72 88 b1 3a
       0.30317673 0.3372922 -0.16451392 0.0013544692
